models/best_cnn3d_tuh.pth (torch, 333673 bytes, 20 tensors)

conv1.weight f4 [16, 27, 3, 3, 3]
0	0x3c230568	0.009950019
1	0x3cc33b61	0.023832025
2	0x3c8e81dd	0.017395908
3	0x3b6fcb6a	0.003658975
4	0x3d16d893	0.036827635
5	0x3c9e895e	0.019352611
6	0xba081f3b	-0.0005192642
7	0x3bc5c75e	0.0060357293
8	0x3c755845	0.014974658
9	0xbca47d5d	-0.02007931
10	0xbc799f79	-0.015235775
11	0x3d1d8651	0.038458172
12	0x3a826d57	0.0009950799
13	0xbc62fd50	-0.01385434
14	0xbcd0a2d8	-0.025468275
15	0x3d566202	0.05233956
16	0x3d35b9c3	0.04436661
17	0x3a7a7c7c	0.0009555293
18	0x3c25ea8c	0.010126721
19	0x3ccae897	0.02476911
20	0x3d25a27a	0.040438153
21	0xbc890d8f	-0.016730098
22	0xbc957f37	-0.018249137
23	0x3c636993	0.013880151
24	0xbbb5f932	-0.005553388
25	0x3cde2f50	0.02712217
26	0x3c2b072c	0.010438722
27	0x3bb1c926	0.00542559
28	0x3ce9388c	0.028469346
29	0xbca5b88c	-0.0202296
30	0x3cb047ce	0.021518614
31	0x3ca24423	0.01980788
32	0x3d0c1637	0.034200873
33	0xbb6ef4da	-0.003646186
34	0xbcc5bca5	-0.024137804
35	0xbd0a03d7	-0.03369507
36	0x3cc536b9	0.024073945
37	0x3d1149f0	0.035470903
38	0xbc1c9542	-0.00955707
39	0x3d22c6d4	0.0397404
40	0x3c8f6266	0.017502975
41	0xbc815bb9	-0.015790807
42	0xbcc7e73b	-0.024402251
43	0x3c8a755c	0.016901664
44	0x3bd23a6f	0.0064156572
45	0xbc0065a0	-0.007836729
46	0xbc889046	-0.016670357
47	0x3d22ba76	0.039728604
48	0xbc042388	-0.008065112
49	0x3d2c79a4	0.042108193
50	0xbb214178	-0.0024605673
51	0xbb39ca85	-0.002834947
52	0xbcbc7fb7	-0.023010118
53	0xbcbee6a9	-0.023303347
54	0xbd018690	-0.03162247
55	0xbbb24096	-0.005439828
56	0x3b98fb54	0.0046686325
57	0x3cbac49e	0.022798833
58	0xbc161079	-0.009159201
59	0xbcf47af9	-0.029843794
60	0x3c027059	0.007961356
61	0xbca3082b	-0.019901356
62	0x3c3418f3	0.0109922765
63	0x3d13d769	0.036094103
64	0x3b8e0366	0.004333901
65	0x3c8f507b	0.01749443
66	0x39cd2d79	0.00039134527
67	0xbbfe20f3	-0.0077553927
68	0x3bc186b1	0.005905949
69	0xbcf1e3f2	-0.029527638
70	0xbbb30503	-0.005463244
71	0x3cbb3d9e	0.02285653
72	0x3c030bc3	0.00799841
73	0x3cb8f7e5	0.022579143
74	0xbc1d270b	-0.009591828
75	0x38e3f207	0.000108692846
76	0x3b80177a	0.0039090486
77	0xbc5e58f7	-0.013571016
78	0xbc624098	-0.013809346
79	0xbc2a0f03	-0.010379556
80	0xbbcfddc4	-0.006343575
81	0xbd09d466	-0.033649825
82	0x3cb48d1a	0.022039939
83	0xbc2fe59e	-0.010735897
84	0x3c95cab7	0.018285139
85	0x3ad5ba0b	0.0016306055
86	0x3bdd7747	0.0067586037
87	0x3c08c693	0.008348125
88	0xbcd92705	-0.026507864
89	0xbba7b36a	-0.0051178234
90	0xbc3631a1	-0.011120231
91	0x3c975b8f	0.018476276
92	0x3cc12dcd	0.02358141
93	0xbc9d0e0c	-0.019171737
94	0xbba979a6	-0.0051719723
95	0xbbdfb5a0	-0.0068270713
96	0x3ce879f0	0.028378457
97	0xbb518a6f	-0.0031973382
98	0xbbdba6a9	-0.006703217
99	0xbc9157bc	-0.01774203
100	0x3d10caf4	0.0353498
101	0xbc6a88ea	-0.014314869
102	0xbc7f7777	-0.0155924475
103	0x3c0347f3	0.0080127595
104	0x3ca206c2	0.019778613
105	0xbcf3b1c3	-0.02974785
106	0x3cd76bb1	0.026296468
107	0x3c1b988c	0.009496819
108	0x3c654783	0.0139941005
109	0x3cac2702	0.021014694
110	0x3ba9cdfa	0.005182025
111	0xbd209198	-0.03920135
112	0xbbfd28d3	-0.007725814
113	0x3b89fadd	0.0042108134
114	0x3ce86ed1	0.028373154
115	0x3cf1d0a1	0.029518427
116	0xbcb42e27	-0.021994663
117	0xbceaf61f	-0.028681813
118	0xbc8bcad1	-0.017064484
119	0x3c9da8f6	0.019245606
120	0x3cd91039	0.026496993
121	0x3c9f19dc	0.01942151
122	0x3cc29a76	0.023755293
123	0x3c1d7b88	0.009611972
124	0xb8a7f487	-8.008727e-05
125	0x3c9ff21d	0.019524628
126	0x3ce92fa3	0.028465098
127	0xbc8e40b5	-0.01736484
128	0x3d094901	0.033516888
129	0x3c9705d8	0.018435404
130	0xbb76c881	-0.003765613
131	0x3c5d7bc1	0.013518275
132	0x3cdccb45	0.026952395
133	0x3cb56004	0.02214051
134	0x3ce5b136	0.028038602
135	0x3c8fa01b	0.017532399
136	0xbc2dfd52	-0.010619478
137	0x3d0de33e	0.034640543
138	0xbcfea6e6	-0.031085443
139	0x3ae36d5f	0.0017351321
140	0xbcc9b179	-0.024620758
141	0x3be7cf2d	0.007074258
142	0x3bb62afc	0.0055593234
143	0x3c981203	0.018563276
144	0x3bb6698c	0.0055667814
145	0xbc211d4e	-0.009833647
146	0x3a232080	0.00062227994
147	0x3c0a059d	0.00842419
148	0xbd1807ad	-0.037116695
149	0xbc18da97	-0.00932946
150	0x3d02a900	0.031899452
151	0x3cc8ec34	0.024526693
152	0x3c3cbe05	0.011519914
153	0x3d012647	0.031530645
154	0xbd101bfc	-0.035182938
155	0x3d539681	0.051657204
156	0x3cb790ed	0.022407973
157	0xbc99a31b	-0.018754533
158	0x3c1741c2	0.0092319865
159	0x3d13e222	0.03610433
160	0xbc875b6c	-0.016523086
161	0x3c168dc6	0.009189075
162	0xbc7a2edb	-0.01526996
163	0x3bbd3b52	0.005774894
164	0xbcc5c0ab	-0.024139723
165	0xbd27644e	-0.040867142
166	0xbcb9dd47	-0.022688521
167	0xbd0d282c	-0.03446214
168	0x3c03a493	0.008034843
169	0xbd044a42	-0.03229738
170	0xbc3b5e15	-0.011436005
171	0xbc264919	-0.010149264
172	0xbcc8a5fc	-0.02449321
173	0xb9f473dd	-0.00046625632
174	0x3d12ce01	0.035840992
175	0x3bbb87fe	0.0057229986
176	0xbcdcb934	-0.02694378
177	0x3c243461	0.010022254
178	0x3cd1d327	0.02561338
179	0xbc87ddd0	-0.01658526
180	0xbd23cbad	-0.039989162
181	0xbc08149c	-0.008305695
182	0xbc16ac01	-0.009196282
183	0xbb567c53	-0.0032727912
184	0xbaef4f0f	-0.0018257814
185	0xbd05d09f	-0.03266966
186	0xbb77e6d5	-0.0037826796
187	0x3d064d2f	0.03278845
188	0x3c839621	0.016062798
189	0xbd135ab8	-0.035975188
190	0x3b69254d	0.0035575212
191	0x3ccbbcd2	0.02487031
192	0xbc3c881c	-0.01150706
193	0x3cf99778	0.030467734
194	0xbd251729	-0.04030529
195	0x3d228e51	0.039686505
196	0xbc08affc	-0.008342739
197	0xbcbc3c7f	-0.022978066
198	0x3d0ff773	0.035148095
199	0xbd18df8b	-0.037322562
200	0xbc61a8b5	-0.013773133
201	0xbc062f26	-0.008189952
202	0x3cceff55	0.025268236
203	0xbc04b7c8	-0.0081004575
204	0xbba36c21	-0.004987255
205	0xbd146a7c	-0.036234364
206	0x3d14a7ac	0.036292717
207	0xbccfd46b	-0.025369843
208	0x3b80a6a0	0.0039261132
209	0x3cd11d6a	0.025526721
210	0xba19a693	-0.00058613083
211	0x3d245a16	0.040124975
212	0xbc419790	-0.0118159205
213	0x3bd70b13	0.0065625994
214	0x3d19c562	0.037541755
215	0xbc99c680	-0.01877141
216	0xbc1b1938	-0.009466462
217	0xbd008bde	-0.031383388
218	0xbc86348e	-0.016382482
219	0xbc866f4f	-0.016410498
220	0xbd16985f	-0.036766406
221	0xbcfb98cb	-0.030712506
222	0x3cf92488	0.030412927
223	0x3ce871c0	0.028374553
224	0xbce1623a	-0.027512658
225	0x3b32cd13	0.0027282878
226	0xbce59612	-0.02802566
227	0x3cc3782e	0.023861017
228	0x3d2d2b14	0.04227741
229	0x3cbcf104	0.023064144
230	0x3d282ad8	0.041056484
231	0x3ce55af4	0.027997471
232	0xbce7055b	-0.028200796
233	0x3c0aa9b3	0.008463311
234	0x3b5a8f0c	0.0033349423
235	0xbd29826b	-0.041384142
236	0x3d025737	0.031821456
237	0xbd225792	-0.039634295
238	0xbaac6228	-0.0013151811
239	0x3c0f3c97	0.008742473
240	0x3c9e0feb	0.0192947
241	0xbac22757	-0.001481275
242	0xbc785e0a	-0.015159139
243	0xbc8688b4	-0.016422607
244	0x3c1d36a8	0.009595551
245	0x3c83fe06	0.016112339
246	0x3c631cdc	0.013861861
247	0xbc5da5c6	-0.013528293
248	0xbc0e37b4	-0.008680273
249	0x3ada3ef1	0.0016650838
250	0x3a1a134e	0.00058775104
251	0x3c22a57e	0.009927152
252	0xbd2dc382	-0.04242278
253	0xbcf1aaca	-0.029500384
254	0xbaa7de78	-0.001280739
255	0x3cfa7446	0.030573022

conv1.bias f4 [16]
0	0xbaaed04e	-0.0013337226
1	0xb799324a	-1.8262439e-05
2	0xba0f8df7	-0.00054761715
3	0x3a082d70	0.0005194759
4	0x3a507964	0.0007952659
5	0xbada4fec	-0.0016655899
6	0xb9cd8a4f	-0.00039203695
7	0xb8fd436c	-0.000120765384
8	0x3aac41b0	0.0013142135
9	0xba3ec1b9	-0.0007276792
10	0x39f60a07	0.00046928247
11	0xb978e4bd	-0.00023736335
12	0xb9885fa4	-0.000260112
13	0xb83316f4	-4.2698302e-05
14	0xb95756a5	-0.00020536275
15	0xb94f5f5d	-0.00019776584

bn1.weight f4 [16]
0	0x3f7e23c3	0.9927332
1	0x3f7bc829	0.98352295
2	0x3f8176ca	1.0114377
3	0x3f7c2345	0.9849132
4	0x3f80fba8	1.0076799
5	0x3f8138d3	1.0095466
6	0x3f7c059b	0.98446053
7	0x3f7ce981	0.987938
8	0x3f8104cf	1.0079592
9	0x3f8054e5	1.0025908
10	0x3f7f2af9	0.99674946
11	0x3f7c4156	0.98537195
12	0x3f81a3a4	1.0128064
13	0x3f7d4685	0.9893573
14	0x3f80548d	1.0025803
15	0x3f7bfd0f	0.9843301

bn1.bias f4 [16]
0	0xbc3847a2	-0.011247547
1	0xbb9821fd	-0.0046427236
2	0x3c21d20e	0.009876741
3	0xbb333ad4	-0.0027348297
4	0xbcc9b958	-0.024624512
5	0x3b7dd9fe	0.003873467
6	0xbbf6a229	-0.007526655
7	0x3b8916df	0.0041836346
8	0xbc503218	-0.012707256
9	0xba598450	-0.0008297609
10	0xbc8f9aa1	-0.017529787
11	0xbb03de4d	-0.0020121515
12	0xbc176574	-0.009240497
13	0x3b3b0a2d	0.002854
14	0x3c44b3c1	0.012005747
15	0xba3357a1	-0.0006841366

bn1.running_mean f4 [16]
0	0xbc65782a	-0.0140057
1	0xbc7c06c2	-0.015382471
2	0x3cb41561	0.02198285
3	0xbcfa219b	-0.030533602
4	0x3c835932	0.016033743
5	0x3c1504d1	0.009095387
6	0x3b1415ea	0.002259607
7	0xbbcb1370	-0.0061973855
8	0x3d187063	0.037216555
9	0xbc44fc3c	-0.012023028
10	0x3b771ba6	0.0037705689
11	0xbc31f0fe	-0.01086068
12	0xbd9ab136	-0.075533316
13	0x3d1e394d	0.038628865
14	0xbc427566	-0.01186881
15	0x393e7fae	0.00018167376

bn1.running_var f4 [16]
0	0x3ecd0915	0.40045992
1	0x3e989f24	0.29808915
2	0x3eb81534	0.35953677
3	0x3ef099d5	0.46992365
4	0x3f43a65f	0.7642574
5	0x3eafb62a	0.34318668
6	0x3f3f5611	0.747407
7	0x3f2b24cd	0.6685303
8	0x3eca3aab	0.39497885
9	0x3ef0063e	0.46879762
10	0x3e62a84f	0.22134517
11	0x3fd0bda6	1.6307876
12	0x3fa3a1fc	1.2783809
13	0x3f3cf1a3	0.7380621
14	0x3f0a43a0	0.5400944
15	0x3f1361fd	0.57571393

conv2.weight f4 [32, 16, 3, 3, 3]
0	0xbcf0d8fe	-0.029400345
1	0x3c596584	0.013268832
2	0x3c758bd5	0.014986952
3	0x3c9455c0	0.018107295
4	0xbc7ea7d2	-0.015542941
5	0xbc0c68d9	-0.0085699195
6	0x3b825f66	0.0039786575
7	0x3babbc42	0.005240948
8	0xbb893470	-0.0041871592
9	0xbd0dbacc	-0.03460197
10	0x3c207d40	0.009795487
11	0xbcdf7d5d	-0.027281458
12	0x3ceedc4d	0.029157782
13	0xbd7456f0	-0.059653223
14	0x3cdf537a	0.027261484
15	0xbd0c6e5a	-0.034284927
16	0xbd4c27ba	-0.049842574
17	0x3bb8dc48	0.005641494
18	0x3c9e0e00	0.019293785
19	0xbd0b71e0	-0.034044147
20	0x3be012d5	0.0068381825
21	0x3d2628e3	0.040566336
22	0x3c434670	0.011918649
23	0xbd1512ba	-0.036394812
24	0x3c2d4f07	0.010577924
25	0x3d1b02e0	0.03784454
26	0xbb075d71	-0.002065506
27	0xb8997928	-7.3181756e-05
28	0xbd0fecf7	-0.035138097
29	0xbb1a27cd	-0.0023522258
30	0x3d147bf1	0.036251012
31	0xbd45c21a	-0.048280813
32	0xbc07d3bc	-0.0082902275
33	0xbc8a49cd	-0.016880894
34	0xbc0f127d	-0.008732435
35	0x3cbfa21d	0.023392731
36	0x3c718d07	0.014743096
37	0x3b520355	0.0032045443
38	0xbac7ecf9	-0.0015253118
39	0x3bcb23dc	0.006199343
40	0xbc46b6e4	-0.012128565
41	0xba38e3e6	-0.00070530025
42	0xbb2939da	-0.0025821836
43	0xbca00835	-0.019535163
44	0x3d5df2f0	0.05418676
45	0xbb739d19	-0.0037172495
46	0xbd4bc99c	-0.049752817
47	0xbd3ce9c3	-0.04612137
48	0xbcfc83f1	-0.030824633
49	0xbb81f303	-0.003965737
50	0xbcfb2959	-0.030659365
51	0x3d87c9a8	0.0663026
52	0x3d27e89c	0.040993318
53	0x3c9cf2a6	0.019158673
54	0x3d8004fb	0.0625095
55	0x3b985876	0.0046492172
56	0x3cea0a42	0.028569344
57	0x3d54a0cb	0.051911157
58	0xbc900dc3	-0.017584687
59	0xbd774091	-0.06036431
60	0x3d264285	0.04059078
61	0xbc9942fc	-0.018708698
62	0xbcbe36e4	-0.023219533
63	0x3d085741	0.033286337
64	0xbd3e1468	-0.04640618
65	0xbbf636bd	-0.0075138495
66	0x3ce9ddd5	0.02854816
67	0xbd80359d	-0.06260226
68	0xbc6362f9	-0.013878577
69	0x3cc3cb0b	0.02390053
70	0xbd2e6645	-0.042578
71	0x3d1b0f71	0.037856523
72	0xbc1eb06b	-0.009685616
73	0x3ce38b90	0.02777651
74	0x3d2d680d	0.04233556
75	0x3d4a3fe1	0.049377326
76	0x3d34db1e	0.04415428
77	0x3c290e0d	0.010318291
78	0x3d6d7640	0.0579741
79	0x3c2e6789	0.010644802
80	0xbd04e818	-0.032447904
81	0xbb57cd58	-0.003292879
82	0xbca72dc0	-0.020407557
83	0xbd0b2866	-0.033974074
84	0xbd4e864e	-0.05042105
85	0xbb71d706	-0.0036901846
86	0x3ce06ee3	0.027396625
87	0x3c823d04	0.015898235
88	0xbcddad90	-0.0270603
89	0x3cf62382	0.030046228
90	0x3cf8d84e	0.03037658
91	0xbbf42009	-0.007450108
92	0xbc8663df	-0.016405044
93	0xbc7974eb	-0.015225629
94	0xbb9e833d	-0.004837422
95	0xbc54230b	-0.012947808
96	0xbd2edb71	-0.042689744
97	0xbd06e868	-0.032936484
98	0xbd3db7b4	-0.04631777
99	0x3d1b2ade	0.03788268
100	0xbd3528b7	-0.04422828
101	0xb98a8ccc	-0.00026426313
102	0x3b1220d5	0.0022297401
103	0x3c5edc64	0.01360235
104	0x3ceeb186	0.029137384
105	0x3d1e58db	0.038658958
106	0xbd696b08	-0.05698684
107	0xbd7584d2	-0.05994112
108	0x3cf9f189	0.03051068
109	0xbd48d7ed	-0.049034048
110	0x3d18dc85	0.03731968
111	0xbc3b6d45	-0.011439626
112	0xbd03ab86	-0.032146
113	0x3cbdcf47	0.023170127
114	0xbce13791	-0.027492316
115	0xbd328f05	-0.043593425
116	0xbd0169c3	-0.031595003
117	0xbd3d95d1	-0.046285454
118	0x3cbefd4f	0.023314146
119	0xbab93266	-0.00141294
120	0xbcf2be8a	-0.029631872
121	0xbd2bde8b	-0.04196028
122	0xbc3b5e36	-0.011436036
123	0x3d004d87	0.031323936
124	0xbca0a8a7	-0.01961167
125	0xbd12147c	-0.035664067
126	0xbd36d106	-0.044632934
127	0xbd10adda	-0.035322048
128	0xbd526ba8	-0.0513722
129	0xbc96b7fe	-0.018398281
130	0xbb48cbe3	-0.0030639104
131	0xbd38bdb0	-0.045102775
132	0xbba914cd	-0.0051599503
133	0xbc10da1a	-0.008841062
134	0xbcb7abe5	-0.022420833
135	0xbc84af0f	-0.016196756
136	0xbd264969	-0.040597353
137	0x3ceac79f	0.02865964
138	0xbd50160f	-0.050802287
139	0xbd195d85	-0.037442703
140	0xbd4ebdb7	-0.050473895
141	0xbc1ff3dc	-0.00976273
142	0x3cdd0ee3	0.026984638
143	0x3be466d0	0.006970264
144	0x3c99801e	0.018737849
145	0x3d107353	0.03526623
146	0xbabef597	-0.0014569041
147	0x3c6dd607	0.01451636
148	0xbcfc2f9e	-0.030784424
149	0x3b733208	0.0037108678
150	0x3d2e4c0c	0.042552993
151	0xbc6c699d	-0.014429477
152	0x3c50b337	0.012738041
153	0xbc9036ed	-0.017604316
154	0xbd40b09c	-0.047043428
155	0xbd3e8967	-0.046517756
156	0x3cb2397c	0.021755926
157	0xbbba2434	-0.0056805853
158	0xba8298d7	-0.0009963763
159	0x3a2cc31c	0.0006590353
160	0xbd0af5f4	-0.033925965
161	0x3caf9594	0.02143363
162	0x3d31df55	0.043425877
163	0x3d0732b8	0.033007354
164	0x3d554dec	0.052076265
165	0x3cf2958a	0.029612321
166	0x3cbd9d96	0.023146432
167	0x3d30d630	0.043173015
168	0xbc23d581	-0.009999634
169	0x3cc5578c	0.024089597
170	0x3cc6c33c	0.024263017
171	0xbc19c81f	-0.0093860915
172	0x3ce0ab9a	0.027425576
173	0x3d197833	0.037468147
174	0x3cf68fb9	0.03009783
175	0xbcdf942e	-0.027292337
176	0x3ca597d6	0.020214003
177	0x3d43f437	0.047840323
178	0xbc27d60d	-0.010243905
179	0x3d414c61	0.04719198
180	0xbd27959c	-0.040914163
181	0xbc303d59	-0.010756814
182	0x3cecd030	0.028907865
183	0x3d16a13e	0.036774866
184	0xbc2e5bef	-0.010642036
185	0x3cf93695	0.030421535
186	0x3b88b35f	0.0041717733
187	0xbc6acf7b	-0.014331694
188	0x3d199519	0.037495706
189	0x3c30e4aa	0.010796705
190	0xbaa2a071	-0.0012407434
191	0xbcce239d	-0.025163466
192	0xbd2fed7a	-0.042951085
193	0x3c74ad28	0.014933862
194	0x3d222d91	0.039594237
195	0xbc89d114	-0.016823329
196	0x3d13ab1f	0.036051866
197	0x3cfa3f63	0.030547803
198	0xbd22fc27	-0.039791252
199	0x3c9eb4bb	0.019373288
200	0xbd2e1f92	-0.042510577
201	0x3d1284ef	0.035771307
202	0x393c2a83	0.00017944914
203	0x3cf22167	0.029556943
204	0xbd09a424	-0.033603802
205	0x3cb6acc6	0.022299182
206	0xbd1e3513	-0.038624834
207	0xbd27bbca	-0.040950574
208	0xbd4aa418	-0.0494729
209	0x3bfe2312	0.0077556456
210	0xbd16635c	-0.03671585
211	0xbcd51650	-0.026011616
212	0x3ca390e4	0.01996655
213	0x3b948c10	0.0045332983
214	0xbcf4ccd6	-0.02988283
215	0x3d1dc0e6	0.03851404
216	0xbccfad28	-0.025351122
217	0x3d096ac8	0.0335491
218	0x3c4ac2ab	0.012375514
219	0x3a954ca7	0.0011390642
220	0xbd304785	-0.043036956
221	0xbbee09c1	-0.0072643463
222	0x3c39386d	0.011304957
223	0x3cd6d1fe	0.026223179
224	0x3d2493aa	0.040179886
225	0xbc1c20ab	-0.009529273
226	0x3c8d28f9	0.017231451
227	0x3d04506c	0.03230326
228	0xbab6ef6a	-0.0013956849
229	0x3a94aa89	0.0011342327
230	0xbd21d0e9	-0.039505873
231	0x3d2bd045	0.04194667
232	0xbccc1c26	-0.024915766
233	0x3d4b9574	0.049703076
234	0x3d569f87	0.05239823
235	0x3b67c832	0.0035367128
236	0x3cd3b025	0.025840828
237	0xbc725304	-0.0147903
238	0x3d2819e1	0.041040305
239	0x3c9dbb7a	0.019254435
240	0xbc293484	-0.010327462
241	0x3cb56fc1	0.022148015
242	0xbc4fad28	-0.012675561
243	0xbc23e0e5	-0.0100023495
244	0x3d096c63	0.03355063
245	0x3b604198	0.0034218784
246	0xbce7294d	-0.028217936
247	0x3d45ad03	0.0482607
248	0xbd175bc0	-0.036952734
249	0xbc51763b	-0.012784536
250	0x3ce36c97	0.02776174
251	0x3d0b7118	0.0340434
252	0xbd2d058e	-0.042241625
253	0xbc198a7f	-0.009371399
254	0x3d1f5333	0.038897704
255	0xbba650bb	-0.005075542

conv2.bias f4 [32]
0	0xb9244b51	-0.00015668316
1	0xb6e5c7f6	-6.8480103e-06
2	0x37564fe6	1.2773997e-05
3	0x38ac89da	8.227276e-05
4	0x37a440ea	1.9580551e-05
5	0xb892e444	-7.00434e-05
6	0x3836e737	4.3607517e-05
7	0xb82a4403	-4.05945e-05
8	0xb71e499a	-9.434671e-06
9	0xb967f329	-0.00022120461
10	0xb918865f	-0.00014545907
11	0xba99adf7	-0.0011724819
12	0x37fb6c81	2.9972058e-05
13	0x3731c6ce	1.059631e-05
14	0x36f3a930	7.2616604e-06
15	0xb6ab747a	-5.109757e-06
16	0xb8222a2f	-3.8663096e-05
17	0xb71ad7e7	-9.229384e-06
18	0xb7bb8746	-2.2355129e-05
19	0x38051b36	3.1735013e-05
20	0x393faf0c	0.0001828039
21	0x37573ea3	1.2829582e-05
22	0xb8ac6902	-8.221158e-05
23	0xb9cd34e8	-0.00039140065
24	0x3901b2cf	0.0001236901
25	0xb88f9811	-6.847096e-05
26	0xb7f9a1b8	-2.975842e-05
27	0x352e220c	6.4869596e-07
28	0xb709f6d1	-8.223303e-06
29	0xb8528fc6	-5.02018e-05
30	0xb8877362	-6.458793e-05
31	0x37cd3390	2.4461915e-05

bn2.weight f4 [32]
0	0x3f813136	1.0093143
1	0x3f8260b6	1.0185764
2	0x3f77f108	0.9685216
3	0x3f7eaa99	0.9947906
4	0x3f7e549f	0.9934787
5	0x3f7c9596	0.9866575
6	0x3f811bd5	1.0086619
7	0x3f7eda8c	0.99552226
8	0x3f7c2301	0.9849091
9	0x3f7f4bc1	0.99724966
10	0x3f8278f8	1.0193167
11	0x3f83e093	1.030291
12	0x3f7a1db6	0.97701585
13	0x3f80aefa	1.0053399
14	0x3f7f8225	0.9980796
15	0x3f7944ac	0.9737041
16	0x3f7bb79d	0.98327047
17	0x3f791c0f	0.9730844
18	0x3f77e349	0.96831185
19	0x3f7a3a83	0.9774553
20	0x3f805098	1.0024595
21	0x3f7c127e	0.98465717
22	0x3f794736	0.97374284
23	0x3f807f4a	1.0038846
24	0x3f828bf2	1.0198958
25	0x3f7cce5e	0.9875239
26	0x3f7a9e0c	0.9789741
27	0x3f7838ff	0.9696197
28	0x3f78f327	0.9724602
29	0x3f796a29	0.9742761
30	0x3f7e99e7	0.99453586
31	0x3f7bd5dc	0.983732

bn2.bias f4 [32]
0	0x3c7150cc	0.014728736
1	0xbae545e2	-0.001749214
2	0xbc486658	-0.012231432
3	0x3b6ad829	0.0035834408
4	0xbc42e652	-0.011895733
5	0x3b87e6ad	0.0041473717
6	0xbc06c990	-0.008226767
7	0xbbf34308	-0.007423762
8	0xbab5c8b1	-0.0013869015
9	0xbc1d4217	-0.009598277
10	0xbadcacad	-0.0016836129
11	0x3c68e3a6	0.014214432
12	0xbc32e49b	-0.010918762
13	0xbc6e7d2f	-0.014556213
14	0xbc13f2f5	-0.009030093
15	0xbcad1e6d	-0.021132672
16	0xbc8c761e	-0.017146166
17	0xbc86fea2	-0.01647884
18	0xbc157642	-0.009122433
19	0xbc5528db	-0.013010229
20	0xbab8d2d1	-0.0014100914
21	0xbce639a1	-0.028103651
22	0xbcf75474	-0.030191638
23	0x3c29df0b	0.010368119
24	0xbafccd85	-0.0019287324
25	0xbcafd154	-0.02146212
26	0xbcc3e667	-0.023913575
27	0xbc52bfa2	-0.012863072
28	0xbc793675	-0.0152107375
29	0xbcb1101a	-0.021614123
30	0x3b8b2069	0.004245807
31	0xbc11156d	-0.008855206

bn2.running_mean f4 [32]
0	0xbeb27b0c	-0.34859502
1	0x3e28f8fb	0.16501229
2	0xbe8986b9	-0.26860598
3	0xbf3eb6b2	-0.7449752
4	0xbf1903ae	-0.5977124
5	0x3e8e23b2	0.27761608
6	0xbe6ec152	-0.23315933
7	0x3cbf489e	0.023350056
8	0xbf000de9	-0.50021225
9	0xbe5ff207	-0.2186967
10	0xbecf108b	-0.4044231
11	0xbeac0b99	-0.33602598
12	0xbe5ac5c6	-0.21364507
13	0x3e70f61a	0.2353138
14	0xbe5c9752	-0.21542099
15	0xbeb72ab9	-0.35774782
16	0xbdc331a8	-0.095309556
17	0xbf36a450	-0.7134447
18	0xbd46c5c5	-0.04852845
19	0x3e8d71b0	0.276258
20	0xbd7108d6	-0.058846317
21	0xbc8d2f6c	-0.017234527
22	0xbe90117a	-0.28138334
23	0xbf57534d	-0.8411148
24	0x3e077191	0.13226916
25	0x3f14dabd	0.5814627
26	0xbe9bad11	-0.30405477
27	0xbee1dacd	-0.44112244
28	0x3d789c91	0.06069619
29	0xbec9c809	-0.39410427
30	0x3dae638f	0.08515083
31	0xbf04d81e	-0.5189227

bn2.running_var f4 [32]
0	0x3e3d398f	0.18478988
1	0x3e5acb4d	0.21366616
2	0x3ef61da3	0.48069486
3	0x3e78b751	0.2428868
4	0x3e9c00a6	0.30469245
5	0x3f3266f4	0.69688344
6	0x3e2f3f7e	0.17114064
7	0x3eea4320	0.45754337
8	0x3ec87553	0.3915201
9	0x3e465311	0.19367625
10	0x3e178de0	0.14800215
11	0x3e23f6ef	0.16012166
12	0x3f02d08a	0.51099455
13	0x3e6aa389	0.22913946
14	0x3ed7eb61	0.42171767
15	0x3e433d3d	0.1906633
16	0x3e59c20f	0.21265434
17	0x3eed7b34	0.4638306
18	0x3ef973e9	0.48721245
19	0x3e749f19	0.23888816
20	0x3e8bee1f	0.2733011
21	0x3f07d815	0.5306409
22	0x3e2ee4bb	0.17079441
23	0x3e458e1f	0.19292496
24	0x3e168b80	0.14701653
25	0x3ee39892	0.4445234
26	0x3f031d71	0.512168
27	0x3e8f99ae	0.28046936
28	0x3ee28364	0.44240868
29	0x3e7de0a0	0.24792719
30	0x3e17e90d	0.14834996
31	0x3e509caf	0.2037227

conv3.weight f4 [64, 32, 3, 3, 3]
0	0x25003226	1.1119221e-16
1	0x3c1a7a05	0.009428506
2	0xa203a36c	-1.7840325e-18
3	0xa5cd58d4	-3.5622024e-16
4	0x3cf55407	0.029947294
5	0x258e6b17	2.470564e-16
6	0x24e39b71	9.8708885e-17
7	0x3cdecc11	0.027196916
8	0x23cc9653	2.2181389e-17
9	0x2c24497f	2.33466e-12
10	0x3b8ed2f1	0.0043586423
11	0xac9c1b92	-4.4368476e-12
12	0x25bc24bf	3.2637701e-16
13	0xbc7fa4bd	-0.0156032415
14	0xa59066f7	-2.504979e-16
15	0xa4a36240	-7.0856424e-17
16	0x3ccdf814	0.025142707
17	0x286e7520	1.32370514e-14
18	0x24901810	6.249081e-17
19	0x3cc2d511	0.023783239
20	0xa63e09aa	-6.593259e-16
21	0x24e2e42f	9.8398434e-17
22	0x3ca8b399	0.020593451
23	0xa4066ebc	-2.9150414e-17
24	0xa4bfcb2b	-8.3177226e-17
25	0x3d055ebc	0.03256105
26	0xa96bfccc	-5.239975e-14
27	0x2110ce00	4.9061736e-19
28	0xbcba4fc5	-0.022743115
29	0x2a8c5b2c	2.493226e-13
30	0xa2ce3342	-5.5890683e-18
31	0x3c7a6f91	0.015285389
32	0xa5730bcb	-2.1080886e-16
33	0x2c4d2298	2.9151456e-12
34	0x3c376af4	0.011194933
35	0xa4828ee4	-5.662058e-17
36	0xa8644e93	-1.26735805e-14
37	0xbc5a2f05	-0.013316874
38	0xa6c1babf	-1.3442683e-15
39	0xa4f5db0e	-1.06622906e-16
40	0xbcd942a7	-0.02652104
41	0xa8766117	-1.3676796e-14
42	0xa3b33230	-1.9428474e-17
43	0xbcd5739e	-0.026056107
44	0x27ca1213	5.608586e-15
45	0x22c6ed5c	5.391932e-18
46	0x3caee230	0.021348089
47	0xa499f748	-6.6772084e-17
48	0x278334a6	3.6416886e-15
49	0xbab5e391	-0.0013877024
50	0x248677c2	5.8316114e-17
51	0xa3cdcf00	-2.2313812e-17
52	0xbd07c52a	-0.033147015
53	0x25412abd	1.6754562e-16
54	0xaa920f20	-2.5945305e-13
55	0xbc027d09	-0.007964381
56	0x2bc2c172	1.3838221e-12
57	0x23d48f02	2.3045652e-17
58	0x3d1b966b	0.037985247
59	0x29b48888	8.01729e-14
60	0xa7f57625	-6.8129253e-15
61	0xbcf8386f	-0.030300347
62	0xa58c5de5	-2.4349754e-16
63	0x271872ce	2.1156473e-15
64	0x3c29f5af	0.010373517
65	0xad2ae865	-9.714983e-12
66	0x2a9a95ba	2.745979e-13
67	0xbba6e462	-0.0050931433
68	0xa3c2d98c	-2.1125657e-17
69	0xa6299050	-5.8829233e-16
70	0xbc24a7bf	-0.010049759
71	0xa353494c	-1.1453854e-17
72	0xa612a7ba	-5.088124e-16
73	0x3c109cf3	0.008826482
74	0xa56a7493	-2.0335762e-16
75	0x2613aac8	5.123232e-16
76	0xbd05197e	-0.032495014
77	0x25830316	2.2726969e-16
78	0xa44fc459	-4.5052283e-17
79	0x3b91b9a8	0.004447181
80	0xad10ec0f	-8.237868e-12
81	0xab269bc0	-5.9191194e-13
82	0x3cd809cc	0.026371859
83	0x23cd29b9	2.2243815e-17
84	0xa41b53ad	-3.3681143e-17
85	0xbcd41571	-0.02588913
86	0x2a75f9e9	2.1847076e-13
87	0x2732fe40	2.4840291e-15
88	0xbc2dc79c	-0.010606673
89	0x257e2ee4	2.2046875e-16
90	0xa57ee83b	-2.2109671e-16
91	0x3cdea6ec	0.027179204
92	0xa418fe0d	-3.3174935e-17
93	0x234f7780	1.1246798e-17
94	0xbcdf4df1	-0.027258845
95	0xa3b40440	-1.9517439e-17
96	0xab13d42c	-5.251934e-13
97	0xbbbc698c	-0.005749887
98	0x2979dfa7	5.5483094e-14
99	0x25da9118	3.791529e-16
100	0xbd1e57c2	-0.03865791
101	0xaaa85cf1	-2.9907286e-13
102	0xa43f27f9	-4.145038e-17
103	0x3c9e8897	0.01935224
104	0xa5028c7f	-1.1323305e-16
105	0x25963036	2.605352e-16
106	0x3c1bbf3d	0.009506044
107	0x27e0b873	6.237247e-15
108	0x2b941266	1.0521139e-12
109	0x3cec4f68	0.028846458
110	0x25482b8a	1.7361986e-16
111	0xad17ecb5	-8.635916e-12
112	0xbce649b8	-0.028111324
113	0x26aa6b28	1.1825164e-15
114	0x29b3a86f	7.9784154e-14
115	0xbcb9a85d	-0.02266329
116	0xa65c7290	-7.6483094e-16
117	0xa44aa1c8	-4.3938802e-17
118	0xbc0b89c1	-0.00851673
119	0xa5643fd9	-1.979748e-16
120	0x270051fd	1.7808014e-15
121	0xbcb37275	-0.021905163
122	0xa9a87d8c	-7.4824776e-14
123	0x251c24de	1.3543334e-16
124	0x3c783c7e	0.015151141
125	0x26bde1ee	1.3175748e-15
126	0xa6899f7d	-9.549514e-16
127	0xb9df508d	-0.0004259389
128	0xa40db432	-3.0727133e-17
129	0xabbad51a	-1.3275242e-12
130	0xbcb1ae01	-0.021689417
131	0xa49f0939	-6.897088e-17
132	0x26acd3b8	1.1992284e-15
133	0x3c45f6cf	0.01208277
134	0xa58f59a8	-2.48673e-16
135	0x2744bc62	2.7302587e-15
136	0x3d04e03b	0.032440405
137	0xa4ca9618	-8.7857804e-17
138	0xa8bffb21	-2.131417e-14
139	0xbcbd35cf	-0.023096947
140	0xa57f66a4	-2.21525e-16
141	0x2496d861	6.541869e-17
142	0xbb82a9c4	-0.003987523
143	0xa90e382a	-3.157905e-14
144	0x2365baa8	1.2453641e-17
145	0x3c801546	0.015635144
146	0xa627fc3a	-5.8281595e-16
147	0xa4af572a	-7.6041814e-17
148	0xbb25ce52	-0.0025299978
149	0x23ce7c98	2.2387332e-17
150	0xa73f10fe	-2.6515786e-15
151	0xbca688fb	-0.02032899
152	0xa8cce497	-2.2747685e-14
153	0xa9062219	-2.9783552e-14
154	0x3ce9ac90	0.028524667
155	0xa2ac94c0	-4.677819e-18
156	0x283d9f57	1.0526159e-14
157	0xbb7a7c08	-0.00382209
158	0x25e62418	3.9923098e-16
159	0xa9c5a4a8	-8.777121e-14
160	0x3cb484a6	0.022035908
161	0x261fffd3	5.5510913e-16
162	0xa44941be	-4.3640613e-17
163	0xbb983559	-0.0046450314
164	0x2a2f3f65	1.5565117e-13
165	0x25882f64	2.3624352e-16
166	0xbd18b48a	-0.03728155
167	0x2265bd38	3.1135459e-18
168	0x29901ee8	6.400246e-14
169	0x3bd8abe1	0.0066122864
170	0x26b072cd	1.224357e-15
171	0xab0e281c	-5.0504197e-13
172	0xb98f6acc	-0.00027354655
173	0xa58c1f34	-2.4307273e-16
174	0xa2b60f53	-4.9347424e-18
175	0x3cd04a17	0.025425954
176	0xa1654634	-7.768113e-19
177	0xa72d2f17	-2.40341e-15
178	0xbc61e24e	-0.013786865
179	0xab99782f	-1.0904662e-12
180	0x2493ff0b	6.418315e-17
181	0xbc736f0f	-0.014858021
182	0xa98d9ff4	-6.289405e-14
183	0x266ca056	8.2096244e-16
184	0xbc6a22a7	-0.014290488
185	0x27de80ec	6.1757155e-15
186	0x286de030	1.3204756e-14
187	0xbc047f8f	-0.008087053
188	0x2aa435f3	2.9169687e-13
189	0x2cdee5f6	6.3351503e-12
190	0xbc92039a	-0.017823983
191	0x2548c8d9	1.7415285e-16
192	0x26dfc244	1.5526389e-15
193	0xbcbb1140	-0.022835374
194	0x25a817ae	2.91594e-16
195	0x2b215489	5.7316006e-13
196	0x3c51f0f4	0.012813795
197	0x278039c8	3.5589783e-15
198	0xa61fb130	-5.540434e-16
199	0xbcee178a	-0.029063959
200	0xa58337b1	-2.2762616e-16
201	0xa41014fd	-3.12428e-17
202	0xbc5d3ded	-0.013503534
203	0xa59b0a42	-2.6895165e-16
204	0x25c87bd0	3.4778368e-16
205	0xbc91250d	-0.017717863
206	0x2d426161	1.1049246e-11
207	0x294419e9	4.3543216e-14
208	0xbd08e445	-0.03342082
209	0xaa0a0c03	-1.226103e-13
210	0x2892035c	1.6210713e-14
211	0x3cff720a	0.031182308
212	0xa687fd4a	-9.436161e-16
213	0x24f8454d	1.07670256e-16
214	0x3cd9481e	0.026523646
215	0xa6baa37c	-1.2950655e-15
216	0x24a537a4	7.16516e-17
217	0xbb21a73e	-0.0024666335
218	0x26b36dd9	1.2450394e-15
219	0xa921d83c	-3.5936735e-14
220	0xbcb6ae12	-0.0222998
221	0xa50ed650	-1.2389149e-16
222	0xa68a6a86	-9.604547e-16
223	0x3c094e90	0.008380547
224	0xa54c6502	-1.7728402e-16
225	0xa52d94a7	-1.5055723e-16
226	0xbd07914e	-0.033097558
227	0x28719548	1.3410558e-14
228	0x23fbe447	2.7310154e-17
229	0xbd17e5ae	-0.037084274
230	0xa47ea9c8	-5.522128e-17
231	0xa604a8a7	-4.6025266e-16
232	0x3cbead11	0.023275884
233	0x28015b13	7.180687e-15
234	0xa67c73eb	-8.758716e-16
235	0xbcbe6032	-0.023239229
236	0xa7e938ef	-6.473222e-15
237	0x237d3344	1.3726013e-17
238	0xba42bf8e	-0.00074290566
239	0xa5bd3e34	-3.2828424e-16
240	0xa5d3ca55	-3.673977e-16
241	0xbcf29f65	-0.02961702
242	0xa1ee4b88	-1.61475e-18
243	0xa7d608f9	-5.940666e-15
244	0x3c2937f6	0.0103282835
245	0x29a38721	7.262095e-14
246	0xa7361aaa	-2.5272028e-15
247	0x3ca76271	0.020432683
248	0xa78be481	-3.8827995e-15
249	0xa781ba28	-3.6006524e-15
250	0xbce573dc	-0.028009348
251	0x27c084ba	5.3434608e-15
252	0xa8525b48	-1.1677135e-14
253	0xbd164a55	-0.036691982
254	0xaa2dd5e1	-1.5439691e-13
255	0x260bfd3c	4.856851e-16

conv3.bias f4 [64]
0	0xb643be9e	-2.9168218e-06
1	0xb71d8173	-9.388069e-06
2	0xb79065e6	-1.7213588e-05
3	0x375dbaf0	1.3216151e-05
4	0xb7276e12	-9.979603e-06
5	0xb68900f3	-4.0830287e-06
6	0x372bc5eb	1.0238476e-05
7	0x3591b738	1.0856666e-06
8	0x37fe6b0a	3.0329003e-05
9	0x36640bb7	3.3981466e-06
10	0x37371034	1.0911423e-05
11	0x34a821a4	3.1316915e-07
12	0xb722eef1	-9.711585e-06
13	0x36ed5146	7.072612e-06
14	0x372f35f2	1.0443373e-05
15	0x360adaa2	2.0690863e-06
16	0xb7168855	-8.972439e-06
17	0xb6455632	-2.940546e-06
18	0x359d33f8	1.1712536e-06
19	0x35a81a92	1.2524708e-06
20	0xb602b0d7	-1.9474444e-06
21	0x36ff7ab7	7.613878e-06
22	0xb6440700	-2.921035e-06
23	0x365b30da	3.2661978e-06
24	0x34edfb2e	4.4327447e-07
25	0xb6cb3980	-6.0565653e-06
26	0x367704e0	3.6808706e-06
27	0xb60cdfa3	-2.09918e-06
28	0x37575dd0	1.2836841e-05
29	0x35676edd	8.6215533e-07
30	0xb8426992	-4.6351524e-05
31	0x35f9f442	1.8623034e-06
32	0xb5f8e231	-1.854327e-06
33	0xb72abac5	-1.0176275e-05
34	0x3780b614	1.5343576e-05
35	0xb74d76bd	-1.2246598e-05
36	0x3605b8f5	1.9926204e-06
37	0x378e57f3	1.6968674e-05
38	0xb81371f6	-3.5153666e-05
39	0xb6315848	-2.6426442e-06
40	0x37855332	1.5893576e-05
41	0xb6a05016	-4.777695e-06
42	0x36a02a5a	4.773302e-06
43	0x3887ef58	6.481883e-05
44	0x36b41bfa	5.367675e-06
45	0xb5e050b5	-1.6712789e-06
46	0xb68b60af	-4.1537783e-06
47	0xb66bb678	-3.512394e-06
48	0x363b1d1e	2.788212e-06
49	0x36e4a30e	6.8139116e-06
50	0xb708a1d8	-8.143914e-06
51	0x359e0fda	1.1776531e-06
52	0x35da2acb	1.625472e-06
53	0x37357c98	1.081745e-05
54	0x365a67f2	3.2545036e-06
55	0xb7fc77c4	-3.0096511e-05
56	0x37b6ba94	2.1782973e-05
57	0x34d1cea2	3.907963e-07
58	0x371d4c0f	9.375638e-06
59	0xb57ea274	-9.4858774e-07
60	0x364ae3b1	3.023288e-06
61	0xb733d29a	-1.0718266e-05
62	0x37122546	8.7109565e-06
63	0x376d257c	1.4135028e-05

bn3.weight f4 [64]
0	0x3f821472	1.016249
1	0x3f816bc0	1.0111008
2	0x3f80af2a	1.0053456
3	0x3f808c21	1.0042764
4	0x3f7fad70	0.9987402
5	0x3f8168b9	1.0110084
6	0x3f80aa96	1.0052059
7	0x3f8099a6	1.004689
8	0x3f7f5680	0.99741364
9	0x3f816bd2	1.0111029
10	0x3f80d01c	1.006351
11	0x3f80d4e2	1.0064967
12	0x3f80d051	1.0063573
13	0x3f80b375	1.0054766
14	0x3f7ee6ba	0.9957081
15	0x3f790b7f	0.97283167
16	0x3f80bfee	1.0058572
17	0x3f80a009	1.0048839
18	0x3f81ddaa	1.0145772
19	0x3f801efb	1.0009454
20	0x3f80c429	1.0059863
21	0x3f813dfe	1.0097044
22	0x3f80a670	1.0050793
23	0x3f803ee0	1.0019188
24	0x3f807b15	1.0037562
25	0x3f814cb8	1.0101538
26	0x3f81a351	1.0127965
27	0x3f8118b0	1.0085659
28	0x3f81e81c	1.0148959
29	0x3f804c80	1.0023346
30	0x3f80c985	1.0061499
31	0x3f80626c	1.0030036
32	0x3f829c2f	1.0203913
33	0x3f80eb6e	1.0071847
34	0x3f816f1f	1.0112036
35	0x3f821d00	1.01651
36	0x3f81231a	1.0088837
37	0x3f806662	1.0031245
38	0x3f80914f	1.0044345
39	0x3f8174f7	1.011382
40	0x3f7f09ad	0.9962414
41	0x3f820f56	1.016093
42	0x3f80b8ff	1.0056456
43	0x3f80d043	1.0063556
44	0x3f80e5d7	1.0070142
45	0x3f7edc3d	0.99554807
46	0x3f8060ad	1.0029503
47	0x3f807826	1.0036666
48	0x3f7f92ce	0.9983338
49	0x3f80596f	1.0027293
50	0x3f806b12	1.0032675
51	0x3f819429	1.012334
52	0x3f7d843a	0.99029887
53	0x3f81356e	1.009443
54	0x3f806eee	1.0033853
55	0x3f80f466	1.0074584
56	0x3f81167a	1.0084984
57	0x3f7ffdb1	0.9999648
58	0x3f80f5bd	1.0074993
59	0x3f80abc1	1.0052415
60	0x3f80b20b	1.0054334
61	0x3f8280f7	1.0195607
62	0x3f817fca	1.0117123
63	0x3f8129c4	1.0090871

bn3.bias f4 [64]
0	0x3c310604	0.010804657
1	0x3ba697e9	0.005084027
2	0x3c0c63d5	0.008568724
3	0x397ea1e7	0.00024283641
4	0xbba88c3b	-0.00514367
5	0x3bcbc37c	0.006218372
6	0x3b6a1403	0.0035717494
7	0xba10a003	-0.00055170077
8	0xbb36fb1c	-0.002792067
9	0x3bd5f9f6	0.006530042
10	0x3c230ea2	0.009952219
11	0x3a9f7a31	0.0012167153
12	0x3bbce668	0.0057647713
13	0x3b624a20	0.0034529045
14	0xb5c33f50	-1.4547059e-06
15	0xb7e33038	-2.7082962e-05
16	0xb9bbdb28	-0.00035830704
17	0x3b1d40d9	0.002399495
18	0x3c0b887d	0.008516428
19	0xbb0098be	-0.0019622291
20	0x3b8b9e4b	0.0042608134
21	0x3c13d0ea	0.009021977
22	0x3b9e2688	0.0048263706
23	0x3c6d7905	0.014494185
24	0x3acd8b98	0.0015681861
25	0x3bac8cba	0.0052657994
26	0x3c169900	0.0091917515
27	0x3bcd19db	0.0062591857
28	0x3bfc8a0f	0.0077068876
29	0xba95ba2c	-0.0011423281
30	0x3bb07a3e	0.005385666
31	0x3c3cbbf5	0.011519422
32	0x3c472e9d	0.01215711
33	0x3bfb54bf	0.0076700146
34	0x3b5c7988	0.0033641774
35	0x3c1d91ae	0.009617252
36	0x3bec18c1	0.0072050993
37	0xbb2c23be	-0.0026266421
38	0x3ad0d3e0	0.0015932284
39	0x3c3627cd	0.011117888
40	0xbbbee36f	-0.005825452
41	0x3c2e7c41	0.010649742
42	0xb9aa467e	-0.00032477448
43	0x3a78a219	0.00094846037
44	0x3bdb2325	0.006687539
45	0x3bde562c	0.006785175
46	0x3b1b7f27	0.0023726912
47	0x39d550ac	0.0004068663
48	0xb9a77926	-0.00031942985
49	0x3a14549b	0.0005658359
50	0x3a58ad20	0.0008265544
51	0x3c340608	0.010987766
52	0xb999ec54	-0.00029358512
53	0x3ba0ca9f	0.004906967
54	0x393f4ef2	0.00018244589
55	0x3b141574	0.0022595795
56	0x3b5bc00e	0.0033531222
57	0x3bd398f8	0.0064574443
58	0x3afca709	0.0019275855
59	0x3c086307	0.008324391
60	0x3a667f53	0.00087927765
61	0x3c5c5380	0.013447642
62	0x3c275abe	0.010214506
63	0x3b3a26c1	0.0028404447

bn3.running_mean f4 [64]
0	0xbe93cd82	-0.28867728
1	0x3e813a97	0.25240013
2	0xbe97b7ec	-0.2963251
3	0x3e900bed	0.281341
4	0x3dcbf842	0.09959461
5	0xbe21e217	-0.15808903
6	0x3eb7552c	0.35807168
7	0x3e9d4442	0.3071614
8	0x3e857b3a	0.26070577
9	0x3e950aac	0.29109704
10	0xbd4260ee	-0.04745572
11	0x3e05dbbb	0.13072102
12	0x3d1c64b0	0.03818196
13	0xbdc5ce76	-0.0965852
14	0xbd1dab3d	-0.038493384
15	0x3dffcf2c	0.12490687
16	0x3ecad5ac	0.39616144
17	0x3e41f03c	0.18939298
18	0x3ea75e66	0.32689208
19	0xbe4530c7	-0.19256888
20	0x3ddc1c47	0.10747581
21	0xbd41c37f	-0.04730558
22	0x3d699da8	0.05703512
23	0xbce216dc	-0.02759879
24	0x3d4bf196	0.04979094
25	0xbe42341d	-0.18965192
26	0x3b9f05b3	0.0048529743
27	0x3dee24b3	0.116280936
28	0x3dd50469	0.10401232
29	0x3e9614a0	0.2931261
30	0x3e8f09b1	0.2793708
31	0x3e235afd	0.15952678
32	0xbd016c05	-0.031597156
33	0xbe259f22	-0.16173986
34	0x3eda7479	0.42666987
35	0xbd2a328f	-0.041552123
36	0x3f20a90a	0.62757933
37	0x3ec50dae	0.38487
38	0x3e3d684e	0.1849682
39	0x3e3ebc97	0.18626629
40	0x3e47cb04	0.19511038
41	0xbdf03ebe	-0.11730717
42	0x3edb7e98	0.4287002
43	0x3f1445d8	0.57919073
44	0x3ea016b5	0.31267324
45	0xbd99f98a	-0.07518299
46	0x3da0e33a	0.0785584
47	0xbd137622	-0.036001332
48	0x3f0ca555	0.54939777
49	0x3d6386be	0.055548422
50	0x3b81a1f0	0.003956072
51	0xbc86d2da	-0.016457964
52	0x3f059287	0.5217671
53	0x3dd4c781	0.10389615
54	0xbe58851b	-0.21144526
55	0x3e93eee2	0.2889319
56	0x3eb309f0	0.3496852
57	0xbd89d16f	-0.067293994
58	0x3efcdeb6	0.49388665
59	0x3e70713f	0.234807
60	0x3e8427d1	0.25811628
61	0xbd679f01	-0.056548122
62	0x3db6d809	0.08927924
63	0x3ee43fa7	0.44579813

bn3.running_var f4 [64]
0	0x3e17f569	0.1483971
1	0x3e342a15	0.17594178
2	0x3db34f10	0.08755314
3	0x3e5b3fb1	0.21411015
4	0x3e43ecae	0.19133255
5	0x3e01dbcc	0.12681502
6	0x3e3ec307	0.18629085
7	0x3e6388df	0.22220181
8	0x3e499824	0.19686943
9	0x3e3e51ed	0.1858594
10	0x3df1d8e9	0.118089505
11	0x3e770982	0.2412472
12	0x3dea84c3	0.114511035
13	0x3e0d4c8d	0.13798733
14	0x3e2d1bcf	0.1690514
15	0x3e1083f0	0.1411283
16	0x3e307642	0.17232612
17	0x3e7f6e22	0.24944356
18	0x3e68ee39	0.22747125
19	0x3e1e57ff	0.15463255
20	0x3df11ae9	0.11772711
21	0x3e08e3a5	0.1336809
22	0x3dfa09c5	0.12208895
23	0x3de50877	0.11183255
24	0x3dfd04ec	0.123544544
25	0x3e012e82	0.12615398
26	0x3dddd812	0.10832228
27	0x3e43b78b	0.19112985
28	0x3e3c3a44	0.18381602
29	0x3e2fda0d	0.17173024
30	0x3e102ec4	0.1408034
31	0x3e67c8e8	0.22635233
32	0x3dd67658	0.10471791
33	0x3dd6e2c5	0.104924716
34	0x3e5afd33	0.2138565
35	0x3ddcbc76	0.107781336
36	0x3e509cdb	0.20372336
37	0x3e460621	0.19338275
38	0x3da4fa1e	0.080555186
39	0x3e089f84	0.133421
40	0x3e51b5d3	0.20479517
41	0x3e3351dc	0.17511696
42	0x3e30d40d	0.17268391
43	0x3e74068d	0.23830624
44	0x3e5d6699	0.21621169
45	0x3e066a57	0.13126503
46	0x3e298b01	0.16556932
47	0x3dc52028	0.09625274
48	0x3e254591	0.16139819
49	0x3e4860d7	0.19568191
50	0x3dd14dda	0.10219927
51	0x3e223520	0.15840578
52	0x3e4f143f	0.20222567
53	0x3e00ea08	0.12589276
54	0x3e0e91e8	0.13922846
55	0x3e41fefb	0.18944924
56	0x3e527ab8	0.20554626
57	0x3e253320	0.16132784
58	0x3e37580b	0.1790468
59	0x3df22fd2	0.11825527
60	0x3e1d6c86	0.1537343
61	0x3dddf311	0.10837377
62	0x3e0b9214	0.13629943
63	0x3e3bb480	0.18330574

fc.weight f4 [2, 64]
0	0xbdfcc13f	-0.12341546
1	0x3e01ced0	0.12676549
2	0xbdaea3e2	-0.08527352
3	0x3d3f9821	0.04677594
4	0x3dcda4a5	0.10041169
5	0x3d9911fd	0.07474134
6	0x3d7f4625	0.062322754
7	0x3d661525	0.05617251
8	0xbbc93e9c	-0.006141497
9	0x3e063ef7	0.13109957
10	0xbe007508	-0.12544644
11	0x3d4e3205	0.05034067
12	0xbdb28bf8	-0.08718103
13	0xbdb3939b	-0.08768388
14	0x3cce6f6e	0.025199618
15	0x3dcbea36	0.099567816
16	0x3dd46319	0.10370464
17	0x3c4b4cd9	0.012408459
18	0x3ceadb15	0.02866892
19	0xbd9c1a58	-0.07622212
20	0x3cd58331	0.026063533
21	0xbc8c9847	-0.017162455
22	0xbddc6b6e	-0.10762678
23	0x3d92f1b2	0.07175006
24	0xbba4a1ff	-0.0050241943
25	0x3d42987d	0.047508705
26	0xbb9fbbfa	-0.0048747035
27	0x3d747f40	0.059691668
28	0x3dd1b934	0.10240403
29	0x3dc30b45	0.09523634
30	0x3d6a86e7	0.05725756
31	0x3daf2404	0.08551791
32	0xbd1b01bf	-0.037843462
33	0xbd122e12	-0.035688467
34	0x3e07c8cf	0.13260196
35	0xbd70ccf8	-0.058789223
36	0x3da0a3ee	0.07843767
37	0x3d66686c	0.05625193
38	0xbd86d45d	-0.06583474
39	0xb9bb23f3	-0.00035694204
40	0x3dac3e74	0.084103495
41	0xbdedad40	-0.116053104
42	0x3e01a032	0.12658766
43	0x3d9cdc64	0.07659224
44	0x3cf6f855	0.03014771
45	0x3d952f0a	0.072843626
46	0x3dd50df2	0.104030505
47	0xbd7f971e	-0.062399976
48	0x3d98bc79	0.07457823
49	0x3dd2d568	0.1029461
50	0x3b989576	0.004656489
51	0x3ba1563c	0.00492361
52	0xbd148f89	-0.0362697
53	0xbdf01f60	-0.11724734
54	0xbcf85e37	-0.030318363
55	0xbd4d81f6	-0.05017277
56	0x3d6ffbd0	0.058589756
57	0xbd7151b5	-0.058915813
58	0x3e011fc7	0.12609778
59	0xbc5f35be	-0.013623653
60	0x3dce6c28	0.10079223
61	0xbdb34ad9	-0.087545104
62	0xbe010bf3	-0.12602215
63	0x3d98cd22	0.07461001
64	0x3d70cd78	0.0587897
65	0xbc7b74c0	-0.01534766
66	0xbd11a1ae	-0.03555458
67	0xbc90ecb6	-0.017690998
68	0xbd84206e	-0.06451498
69	0x3e0e28dc	0.13882774
70	0x3bfeb1b3	0.0077726482
71	0xbded179f	-0.11576771
72	0xbde21e00	-0.11040878
73	0x3bc841b2	0.006111347
74	0xbdaae712	-0.083448544
75	0xbd999903	-0.07499888
76	0x3dd153cb	0.1022106
77	0xbd0ef3ad	-0.034900356
78	0xbd221ac8	-0.03957632
79	0x3dfcfe8a	0.12353237
80	0xbd846f43	-0.06466534
81	0xbd3dc06f	-0.046326097
82	0xbd288a01	-0.041147236
83	0xbe04d004	-0.12969977
84	0xbd36b384	-0.044604793
85	0x3d6585dd	0.056035865
86	0x3d914868	0.070938885
87	0x3de05acf	0.1095482
88	0xbdf5a806	-0.119949386
89	0x3ded2d43	0.115808986
90	0x3dc77d1e	0.09740661
91	0xbd65a5fc	-0.0560665
92	0xbd68f833	-0.056877326
93	0xbdb10f61	-0.086455114
94	0xbe0750bc	-0.13214391
95	0x3d2ab5df	0.041677352
96	0x3da11b41	0.078665264
97	0x3d82c1fa	0.06384654
98	0xbd632ee4	-0.05546464
99	0x3e0300d7	0.12793289
100	0xbd6dd661	-0.058065776
101	0xbda4c6d4	-0.08045736
102	0x3dd2a361	0.10285068
103	0x3d6f4c73	0.058422517
104	0x3b40ecd6	0.002943804
105	0x3d899a2c	0.06718859
106	0xbdcd0e0a	-0.10012443
107	0xbdfc4bd9	-0.12319154
108	0xbc849ba9	-0.016187506
109	0x3dd1c5d6	0.10242812
110	0x3d0a9712	0.033835478
111	0x3d803720	0.06260514
112	0x3cccc686	0.024997007
113	0x3d5bc6fd	0.053656567
114	0x3d43067e	0.047613613
115	0x3d841e8d	0.064511396
116	0xbd873d5d	-0.06603501
117	0x3deb3f39	0.11486668
118	0x3dd21057	0.10257023
119	0xbde0fbb1	-0.10985506
120	0xbd0ec0da	-0.034851886
121	0xbcd2aae3	-0.02571625
122	0xbc4a02c1	-0.012329758
123	0x3ce91943	0.028454429
124	0x3b434e07	0.0029801147
125	0x3dacddf0	0.08440769
126	0xbca7733f	-0.020440696
127	0xbd1346f9	-0.035956357

fc.bias f4 [2]
0	0x3cdf74ec	0.027277432
1	0x3da749c9	0.0816837
